…
      "code_hash": "6e3af912bab431baab8dd6ed5247e6e7",
      "outputs": [
        {
          "type": "data",
          "data": {
            "text/markdown": "<span class=\"markdown prose dark:prose-invert contents\"><h3 id=\"_1\">\u30e2\u30c7\u30eb\u3092\u30ed\u30fc\u30c9\u3059\u308b</h3></span>"
          }
        }
      ],
      "console": []
    },
    {
      "id": "svpB",
      "code_hash": "0b209c4be03bc43a2af20f88f42b1c01",
      "outputs": [
        {
          "type": "data",
          "data": {
            "text/html": "<pre style='font-size: 12px'>XLMRobertaModel(\n  (embeddings): XLMRobertaEmbeddings(\n    (word_embeddings): Embedding(250002, 768, padding_idx=1)\n    (position_embeddings): Embedding(514, 768, padding_idx=1)\n    (token_type_embeddings): Embedding(1, 768)\n    (LayerNorm): LayerNorm((768,), eps=1e-05, elementwise_affine=True)\n    (dropout): Dropout(p=0.1, inplace=False)\n  )\n  (encoder): XLMRobertaEncoder(\n    (layer): ModuleList(\n      (0-11): 12 x XLMRobertaLayer(\n        (attention): XLMRobertaAttention(\n          (self): XLMRobertaSdpaSelfAttention(\n            (query): Linear(in_features=768, out_features=768, bias=True)\n            (key): Linear(in_features=768, out_features=768, bias=True)\n            (value): Linear(in_features=768, out_features=768, bias=True)\n            (dropout): Dropout(p=0.1, inplace=False)\n          )\n          (output): XLMRobertaSelfOutput(\n            (dense): Linear(in_features=768, out_features=768, bias=True)\n            (LayerNorm): LayerNorm((768,), eps=1e-05, elementwise_affine=True)\n            (dropout): Dropout(p=0.1, inplace=False)\n          )\n        )\n        (intermediate): XLMRobertaIntermediate(\n          (dense): Linear(in_features=768, out_features=3072, bias=True)\n          (intermediate_act_fn): GELUActivation()\n        )\n        (output): XLMRobertaOutput(\n          (dense): Linear(in_features=3072, out_features=768, bias=True)\n          (LayerNorm): LayerNorm((768,), eps=1e-05, elementwise_affine=True)\n          (dropout): Dropout(p=0.1, inplace=False)\n        )\n      )\n    )\n  )\n  (pooler): XLMRobertaPooler(\n    (dense): Linear(in_features=768, out_features=768, bias=True)\n    (activation): Tanh()\n  )\n)</pre>"
          }
        }
      ],
      "console": []
    },
    {
      "id": "iIwq",
      "code_hash": "9bab9716e5f20e81e39f0fc1be0b55d8",
      "outputs": [
        {
          "type": "data",
          "data": {
            "text/html": "<pre style='font-size: 12px'>XLMRobertaConfig {\n  &quot;architectures&qu
…
